…
er":{"displayName":"James Cummins","userId":"11170808016535630172"}},"outputId":"f2d7871b-4791-4828-a269-50c7bbe2912d"},"execution_count":7,"outputs":[{"output_type":"stream","name":"stdout","text":["Model: \"model\"\n","_________________________________________________________________\n"," Layer (type)                Output Shape              Param #   \n","=================================================================\n"," input_1 (InputLayer)        [(None, 28, 28, 3)]       0         \n","                                                                 \n"," conv2d (Conv2D)             (None, 28, 28, 256)       7168      \n","                                                                 \n"," conv2d_1 (Conv2D)           (None, 28, 28, 128)       295040    \n","                                                                 \n"," max_pooling2d (MaxPooling2D  (None, 14, 14, 128)      0         \n"," )                                                               \n","                                                                 \n"," conv2d_2 (Conv2D)           (None, 14, 14, 28)        32284     \n","                                                                 \n"," conv2d_3 (Conv2D)           (None, 14, 14, 28)        7084      \n","                                                                 \n"," up_sampling2d (UpSampling2D  (None, 28, 28, 28)       0         \n"," )                                                               \n","                                                                 \n"," conv2d_4 (Conv2D)           (None, 28, 28, 128)       32384     \n","                                                                 \n"," conv2d_5 (Conv2D)           (None, 28, 28, 256)       295168    \n","                                                                 \n"," conv2d_6 (Conv2D)           (None, 28, 28, 3)         6915      \n","                                                                 \n","=================================================================\n","Total params: 676,043\n","Trainable params: 676,043\n","Non-trainable params: 0\n","_________________________________________________________________\n","Epoch 1/10\n","98/98 [==============================] - 36s 194ms/step - loss: 0.0236 - val_los
…
